…
14eb252f5da8bffdd22\n\n\u001b[1;38;5;39mCOMET INFO:\u001b[0m Couldn't find a Git repository in '/kaggle' nor in any parent directory. Set `COMET_GIT_DIRECTORY` if your Git Repository is elsewhere.\n","output_type":"stream"},{"name":"stdout","text":"\u001b[KDownloading https://ultralytics.com/assets/Arial.ttf to '/root/.config/Ultralytics/Arial.ttf': 100% ━━━━━━━━━━━━ 755.1KB 16.5MB/s 0.0s\nOverriding model.yaml nc=80 with nc=38\n\n                   from  n    params  module                                       arguments                     \n  0                  -1  1      1856  ultralytics.nn.modules.conv.Conv             [3, 64, 3, 2]                 \n  1                  -1  1     73984  ultralytics.nn.modules.conv.Conv             [64, 128, 3, 2]               \n  2                  -1  1    111872  ultralytics.nn.modules.block.C3k2            [128, 256, 1, True, 0.25]     \n  3                  -1  1    590336  ultralytics.nn.modules.conv.Conv             [256, 256, 3, 2]              \n  4                  -1  1    444928  ultralytics.nn.modules.block.C3k2            [256, 512, 1, True, 0.25]     \n  5                  -1  1   2360320  ultralytics.nn.modules.conv.Conv             [512, 512, 3, 2]              \n  6                  -1  1   1380352  ultralytics.nn.modules.block.C3k2            [512, 512, 1, True]           \n  7                  -1  1   2360320  ultralytics.nn.modules.conv.Conv             [512, 512, 3, 2]              \n  8                  -1  1   1380352  ultralytics.nn.modules.block.C3k2            [512, 512, 1, True]           \n  9                  -1  1    656896  ultralytics.nn.modules.block.SPPF            [512, 512, 5, 3, True]        \n 10                  -1  1    990976  ultralytics.nn.modules.block.C2PSA           [512, 512, 1]                 \n 11                  -1  1         0  torch.nn.modules.upsampling.Upsample         [None, 2, 'nearest']          \n 12             [-1, 6]  1         0  ultralytics.nn.modules.conv.Concat           [1]                           \n 13                  -1  1   1642496  ultralytics.nn.modules.block.C3k2            [1024, 512, 1, True]          \n 14                  -1  1         0  torch.nn.modules.upsampling.Upsample         [None, 2, 'nearest']          \n 15             [-1, 4]  1         0  ultralytics.nn.modules.conv.Concat           [1]                           \n 16                  -1  1    542720  ultralytics.nn.modules.block.C3k2            [1024, 256, 1, True]          \n 17                  -1  1    590336  ultralytics.nn.modules.conv.Conv             [256, 256, 3, 2]              \n 18            [-1, 13]  1         0  ultralytics.nn.modules.conv.Concat           [1]                           \n 19                  -1  1   1511424  ultralytics.nn.modules.block.C3k2            [768, 512, 1, True]           \n 20                  -1  1   2360320  ultralytics.nn.modules.conv.Conv             [512, 512, 3, 2]              \n 21            [-1, 10]  1         0  ultralytics.nn.modules.conv.Concat           [1]                           \n 22                  -1  1   1974784  ultralytics.nn.modules.block.C3k2            [1024, 512, 1, True, 0.5, True]\n 23        [16, 19, 22]  1   2857212  ultralytics.nn.modules.head.Detect           [38, 1, True, [256, 512, 512]]\nYOLO26m summary: 280 layers, 21,831,484 parameters, 21,831,484 gradients, 75.0 GFLOPs\n\nTransferred 756/768 items from pretrained weights\n\u001b[34m\u001b[1mAMP: \u001b[0mrunning Automatic Mixed Precision (AMP) checks...\n\u001b[KDownloading https://github.com/ultralytics/assets/releases/download/v8.4.0/yolo26n.pt to 'yolo26n.pt': 100% ━━━━━━━━━━━━ 5.3MB 70.2MB/s 0
…
